learn_pytorch/softmax.pth (torch, 32728 bytes, 2 tensors)

w f4 [784, 10]
0.008711117 -0.009784282 -0.0039117974 0.00076760194 -0.011314065 0.0070578787 0.022299567 -0.011755732
-0.002833225 0.018822063 -0.0038329856 -4.5268447e-05 0.009805856 -0.017510105 0.005765738 0.0030888938
0.0012889038 0.00969094 0.009466205 -0.0052072513 0.010763716 9.695515e-05 0.0032085516 -4.1472747e-05
0.000425759 0.002278436 -0.002423237 -0.010488506 0.0072199362 0.015396595 -0.0050678924 0.0008904382
-0.0020828687 0.003037432 -0.014439082 0.0044619655 0.004628645 0.008531477 -0.012670201 0.0033491026
0.002164094 -0.0010472408 -0.0049738325 -0.0025469947 -0.012737873 -0.0032488047 -0.0006618345 -0.012963349
-0.00089018675 0.0032974903 -0.01074932 0.011238165 -0.004525147 -0.0014535966 0.011303625 -0.013036667
-0.000799738 0.0030623022 0.007181933 -0.0017302799 -0.013486414 0.008161944 -0.023049125 -0.017606685
-0.0010085786 -0.024026396 0.0109235225 0.009942915 -0.006765477 -0.006215081 -0.004724304 0.033365987
-0.0037357823 -0.0072714877 0.0052235816 -0.012480192 0.022212645 0.003869021 0.014982514 0.019852698
-0.0074843606 0.04049385 -0.009592403 -0.0119149005 -0.042532776 -0.011233051 0.04233341 -0.0015973031
-0.017260488 -0.011916941 0.0198211 0.06611175 0.0048430036 0.024595536 -0.08230021 -0.015459398
0.036619496 -0.023465697 -0.008573239 -0.023935447 0.004125821 0.124134846 0.10940081 0.033543374
-0.11532347 -0.015111306 -0.07548129 -0.0062913983 -0.041064113 -0.036428418 0.020770451 0.14016098
0.11301304 0.05762268 -0.033311184 -0.046940297 -0.16284688 -0.014222639 -0.062476184 -0.03895014
-0.028637988 0.109634325 -0.053433273 -0.0076044644 0.1212777 -0.047651567 0.020203063 -0.027637415
-0.06437561 -0.04319551 -0.053733733 0.11203637 -0.0561543 -0.07881849 0.17067301 -0.056618907
-0.014608924 -0.025945855 -0.020958737 -0.020975167 -0.044265516 0.105389416 -0.03355485 -0.0967512
0.17997666 -0.039059885 -0.045356147 -0.01835028 0.02867025 -0.024504269 -0.07173617 0.10311513
-0.049600437 -0.053100985 0.15057257 -0.051623307 0.0001478661 -0.03366311 -0.013690297 -0.005103326
0.028905205 0.10259086 0.06870008 0.036974248 0.042229276 -0.049330354 -0.12584017 -0.04127656
-0.06355459 -0.03130385 0.04025367 0.129019 0.15664686 0.06679625 -0.10508856 -0.019078063
-0.1504574 -0.025280863 -0.05601179 -0.009638058 0.014598956 0.13569437 0.039774608 0.018031726
-0.1177508 -0.0022558412 -0.019568648 -0.035684235 -0.038727093 0.006480852 0.028103722 0.08395591
-0.014892123 -0.014954439 -0.062929176 -0.036185164 0.03684923 -0.0009184761 -0.010736423 0.011098152
0.008620096 0.06403377 -0.01115106 -0.01771011 -0.02201317 -0.0013606305 -0.008883317 0.009034103
-0.0024208357 0.012637564 -0.020903789 0.02333978 -0.032661863 -0.017950784 -0.012196316 0.026840145
-0.004378492 -0.01444442 -0.007195943 0.019665847 -0.0055156047 0.0028041818 -0.02361361 -0.009929585
-0.018979643 0.002681004 0.011884478 0.0059020943 0.0058063124 0.004246212 -0.005885414 -0.020917546
-0.0040495987 0.0014023551 -0.01562682 0.008334831 0.020318737 -0.00047674266 0.006089488 0.008606858
-0.0020428754 -0.008915233 -0.01081428 -0.009906247 0.0026020065 0.016648978 0.0037963595 0.015585439
0.0045605046 0.0020219204 0.00079497445 0.00036682573 -0.026104633 0.017413784 0.018709663 0.010609017
00000000: 13b9 0e3c 414e 20bc 892e 80bb e538 493a
00000010: a15e 39bc c745 e73b 95ad b63c 1d9b 40bc
00000020: a1ad 39bb ba30 9a3c d432 7bbb a0de 3db8
00000030: bea8 203c 5a71 8fbc 84ee bc3b 0a6f 4a3b
00000040: 6ff0 a83a c0c6 1e3c 2418 1b3c 97a1 aabb
00000050: 4c5a 303c 6654 cb38 9046 523b 06f3 2db8
00000060: 6838 df39 d051 153b 2ccf 1ebb fcd7 2bbc
00000070: 3795 ec3b 0042 7c3c 9010 a6bb 4c6c 693a
00000080: bd80 08bb a70f 473b e691 6cbc ae35 923b
00000090: e3ab 973b 9cc7 0b3c ad96 4fbc 9e7c 5b3b
000000a0: 79d3 0d3b 9243 89ba 88fb a2bb 7beb 26bb
000000b0: 83b2 50bc e6e9 54bb f67e 2dba 3a64 54bc
000000c0: 6c5b 69ba b51a 583b ea1d 30bc 4820 383c
000000d0: af47 94bb 9c86 beba d732 393c bf97 55bc
000000e0: 82a5 51ba e8b0 483b 6c56 eb3b 8fca e2ba
000000f0: 1ff6 5cbc adb9 053c 85d1 bcbc e53b 90bc
00000100: 4832 84ba 01d3 c4bc 93f8 323c 9ce7 223c
00000110: efb0 ddbb e1a7 cbbb 56ce 9abb c6aa 083d
00000120: 07d4 74bb a945 eebb 942a ab3b b879 4cbc
00000130: 4bf7 b53c 678f 7d3b 3879 753c 20a2 a23c
00000140: 5e3f f5bb e1dc 253d 7429 1dbc b736 43bc
00000150: d936 2ebd d50a 38bc cc65 2d3d 995c d1ba
00000160: de65 8dbc 463f 43bc dc5f a23c 9965 873d
00000170: 0fb2 9e3b 947c c93c 038d a8bd 6a49 7dbc
00000180: 53fe 153d 223b c0bc c576 0cbc 4514 c4bc
00000190: e531 873b 693a fe3d 880d e03d c764 093d
000001a0: b62e ecbd 6995 77bc ef95 9abd 1328 cebb
000001b0: d832 28bd f735 15bd cb26 aa3c 5c86 0f3e
000001c0: 6173 e73d c205 6c3d 4f71 08bd 7844 40bd
000001d0: 55c1 26be 1206 69bc 07e7 7fbd 2f8a 1fbd
000001e0: 379a eabc f687 e03d d9dc 5abd df2e f9bb
000001f0: 7160 f83d 4a2e 43bd e580 a53c dc67 e2bc
00000200: 5cd7 83bd c6ed 30bd e717 5cbd 5373 e53d
00000210: 0d02 66bd 976b a1bd e8c4 2e3e 3ae9 67bd
00000220: 455a 6fbc 678c d4bc a8b1 abbc 1dd4 abbc
00000230: c24f 35bd 68d6 d73d cf70 09bd 7e25 c6bd
00000240: cd4b 383e 42fd 1fbd 5ec7 39bd 5453 96bc
00000250: dfdd ea3c 2dbd c8bc 6aea 92bd 062e d33d
00000260: d429 4bbd 6b80 59bd b22f 1a3e f672 53bd
00000270: 810c 1b39 54e2 09bd 444d 60bc cd39 a7bb
00000280: 9cca ec3c 281b d23d a1b2 8c3d 4f72 173d
00000290: 9bf8 2c3d a00e 4abd 3fdc 00be 9c11 29bd
000002a0: e928 82bd 7738 00bd 08e1 243d 8f1d 043e
000002b0: 0968 203e 79cc 883d ac38 d7bd 9949 9cbc
000002c0: 8111 1abe d019 cfbc 9e6c 65bd f2e8 1dbc
000002d0: 7630 6f3c 77f3 0a3e b3ea 223d 45b7 933c
000002e0: 5527 f1bd bcd6 13bb 6e4e a0bc a229 12bd
000002f0: 4da0 1ebd 545d d43b c739 e63c 13f1 ab3d
00000300: 17fe 73bc 7703 75bc 03e1 80bd e536 14bd
00000310: 38ef 163d e3c5 70ba d2e7 2fbc 06d5 353c
00000320: 4e3b 0d3c 2324 833d f0b2 36bc cb14 91bc
00000330: f754 b4bc 2f57 b2ba 558b 11bc c603 143c
00000340: e2a6 1ebb c90d 4f3c 6c3e abbc 1133 bf3c
00000350: 72c8 05bd 860d 93bc 0fd3 47bc dddf db3c
00000360: 7479 8fbb 4aa8 6cbc f2cb ebbb 451a a13c
00000370: 3fbc b4bb 5dc6 373b 5471 c1bc b3af 22bc
00000380: 327b 9bbc c9b3 2f3b 1db7 423c 5b66 c13b
00000390: e142 be3b cf23 8b3b 6eda c0bb 465b abbc
000003a0: 7fb2 84bb 3bcf b73a d103 80bc d18e 083c
000003b0: 7b73 a63c 51f3 f9b9 548a c73b c703 0d3c
000003c0: c3e1 05bb 3311 12bc 612e 31bc d04d 22bc
000003d0: 6d86 2a3b 7063 883c 58cc 783b 125a 7f3c
000003e0: 4970 953b 3282 043b d565 503a 8452 c039
000003f0: 62d9 d5bc 5aa7 8e3c 0245 993c 71d1 2d3c

b f4 [10]
0.038031343 -0.025824916 -0.06778381 -0.0013471141 -0.28890747 0.7137638 0.122609116 -0.03635202
-0.17498282 -0.27920324
00000000: c1c6 1b3d c68e d3bc 3dd2 8abd a691 b0ba
00000010: aeeb 93be 39b9 363f 7d1a fb3d dbe5 14bd
00000020: b22e 33be baf3 8ebe
